notebooks/agModels-predictClass/models/NeuralNetFastAI/model-internals.pkl (torch, 299460 bytes, 16 tensors)

weight f4 [180]
00000000: 1e5f 753f 0273 793f 84c8 803f 34b5 823f
00000010: 03c0 7c3f 748a 793f 0d45 7f3f 5867 823f
00000020: cd0b 813f f7ad 813f 24ea 803f 85f9 783f
00000030: 0674 803f a5e5 803f a1d1 803f 3335 7f3f
00000040: d7df 7e3f 9b83 7e3f e2af 7f3f 257f 803f
00000050: d18d 7f3f 7d5b 813f 5414 813f de5d 7a3f
00000060: f704 7f3f 7c35 7d3f 58c7 7d3f 008d 803f
00000070: 3e39 763f d0d0 813f d167 7c3f 269e 7c3f
00000080: 4147 7f3f bdce 7e3f 5d33 753f e079 7d3f
00000090: c21a 813f 7b21 803f 5359 813f a92d 7d3f
000000a0: 2a0e 813f c3bc 773f 44c0 813f 5f09 7f3f
000000b0: 43e8 7d3f 9fe2 7d3f cf8c 783f e62f 7a3f
000000c0: bc82 803f cd51 7c3f 9f63 7a3f bc2f 843f
000000d0: a233 7e3f 2538 7e3f 6847 7b3f d560 793f
000000e0: adbb 813f 7862 7b3f 119e 7a3f 5e14 823f
000000f0: 52ca 7a3f 631a 723f ff09 7e3f 9e69 823f
00000100: 7f5e 773f 931a 823f 6c12 7f3f ef80 813f
00000110: ebbc 803f c725 803f 8d04 813f 2d79 7f3f
00000120: 2da4 813f 5636 7c3f 04dd 7f3f a82a 7c3f
00000130: 8bd5 813f 8239 7d3f 06c6 7c3f 5635 7b3f
00000140: b376 7b3f 7f88 753f a699 813f daf1 7c3f
00000150: f6d2 763f 5518 793f bb5e 7b3f d3a0 7d3f
00000160: 5265 7d3f 57dc 7c3f f17c 803f ce3b 763f
00000170: 6c0a 7c3f b144 7d3f 61ca 7f3f 7514 773f
00000180: b026 7f3f cd7c 7a3f aafd 803f a68c 7c3f
00000190: 95cd 7a3f 01d2 793f b73d 813f 3921 783f
000001a0: ea2d 7f3f 5068 7b3f 6c7b 7d3f 47b4 813f
000001b0: 98c6 783f 63d0 7c3f 5924 7b3f 7746 7c3f
000001c0: babf 7f3f d35a 7e3f af3e 7b3f 76c2 803f
000001d0: 189c 7a3f 2692 7f3f ba0c 7c3f 241a 7f3f
000001e0: adee 7c3f 512c 743f 3e6c 7d3f b69c 7b3f
000001f0: b384 7b3f 2232 813f ffb3 803f 90cb 783f
00000200: f13b 793f 34df 793f aabf 793f c921 7c3f
00000210: 3f52 783f 19d4 783f ac47 753f c0e5 773f
00000220: 4a19 7b3f f88d 7b3f 7c11 7a3f 20e6 7d3f
00000230: 3ad1 7a3f 34c0 803f 8409 823f 76cd 7d3f
00000240: e93f 7b3f cadf 7c3f 1742 833f ecac 7d3f
00000250: efe0 803f d419 853f 32ab 833f 98e1 813f
00000260: de79 7b3f 81ef 7f3f 4fb6 833f 3d8c 833f
00000270: 7162 803f f1c2 843f 7d9e 803f a342 823f
00000280: 38d0 753f b29e 913f 2090 8b3f 4b09 893f
00000290: e983 813f cfdc 823f a72e 863f aa51 803f
000002a0: b397 863f 7deb 863f aad3 883f 0f85 853f
000002b0: 0e67 843f 7938 853f 9963 8b3f 16cd 863f
000002c0: 0d2c 853f bd91 833f 2a17 8a3f 8896 883f
0.9584826 0.97441113 1.0061193 1.0211549 0.98730487 0.9747689 0.9971474 1.0187788
1.0081726 1.0131215 1.0071454 0.97255737 1.0035408 1.0070082 1.0063974 0.9969055
0.995603 0.99419564 0.9987775 1.0038801 0.9982577 1.0106045 1.0084329 0.9779948
0.9961695 0.98909736 0.991323 1.004303 0.96181095 1.014185 0.9859591 0.98678815
0.997181 0.9953421 0.957815 0.9901409 1.0086291 1.0010217 1.0105385 0.98897797
1.0082448 0.967724 1.01368 0.99623674 0.9918253 0.9917392 0.97089857 0.9772934
1.0039897 0.9856232 0.9780826 1.0327067 0.99297535 0.9930442 0.9815583 0.9741338
1.0135399 0.98197126 0.9789744 1.0162466 0.97964966 0.9457151 0.99234 1.0188482
0.96628565 1.016436 0.99637485 1.0117472 1.0057653 1.0011529 1.0079514 0.99794275
1.0128227 0.9852041 0.9994662 0.9850259 1.0143293 0.98915875 0.9873966 0.9812826
0.98227996 0.959114 1.0125015 0.98806536 0.9641565 0.9730275 0.9819142 0.99073523
0.9898273 0.9877371 1.0038129 0.96185005 0.984534 0.9893294 0.9991818 0.9651559
0.9966841 0.9784668 1.0077412 0.9865211 0.97969943 0.97586066 1.0096959 0.96925694
0.99679434 0.98206043 0.9901645 1.0133141 0.9717803 0.9875547 0.9810234 0.9854502
0.99901927 0.99357337 0.9814252 1.0059345 0.9789443 0.9983238 0.9845692 0.9964926
0.9880169 0.9538012 0.9899329 0.98285997 0.9824936 1.0093424 1.005493 0.9718561
0.9735709 0.97606206 0.9755808 0.9848905 0.970005 0.97198635 0.9581249 0.96834946
0.98085463 0.982635 0.9768293 0.9917927 0.97975504 1.0058656 1.0159154 0.99141634
0.98144394 0.98778975 1.0254544 0.9909198 1.0068644 1.0398507 1.028662 1.0146971
0.9823283 0.9997483 1.0290011 1.0277172 1.0030042 1.0371991 1.0048367 1.0176586
0.9602084 1.1376555 1.0903358 1.0705961 1.0118381 1.0223635 1.0482987 1.0024922
1.0515045 1.0540615 1.0689595 1.0431231 1.034395 1.0407859 1.088977 1.0531337
1.0404068 1.0278851 1.0788319 1.0670938

bias f4 [180]
00000000: d9df c53a 3ed3 643d 54c3 dcbc 6428 b1bc
00000010: 205c e7bc 1651 0bbc e40f 70bc b930 18bc
00000020: 01ce 39bd ac51 133d 01af 68bc c8d7 5bbc
00000030: b00b 01bc 5c0c 1fbc 7983 b83c 9092 ecbc
00000040: 91f1 823c 1c6f 90bc 2db5 12bd d8e0 5c3c
00000050: 6b7a 09bd 01a3 7ebd 8ec4 8f3b fe53 91bb
00000060: 6abb 3abc 0ca1 343d e47d 6bbd e261 993c
00000070: 7218 29bc 1688 063c 5a21 253b 7ed6 173c
00000080: 8be0 f0bd 9694 11bc 5cb9 403a b8da 083d
00000090: d3d5 3cbc ca68 babb d91a 4bbc 207e f8bc
000000a0: 4a39 443b da66 0fbc 38d9 263b 2fbb c93c
000000b0: fea9 aa3c 7159 233c 6db3 673b dadd babc
000000c0: 6663 06bd d0fe 353c 5045 fabc 5187 f93c
000000d0: d9af 8f3b 1869 0dbd 0b91 13bd 4a9f 29bc
000000e0: 8f19 cdbc fd32 2bbd bfd5 a9bc b0d0 6bbc
000000f0: 20e0 223d 4c49 b7bb fad4 473d 5d23 cf3c
00000100: 2716 7fbc fa85 9cbd 1aa2 7fbd e4de 87bd
00000110: 2274 fcbb 37dc 9b3c 2998 0d3c 5f9e 993c
00000120: 3a17 66bd b75c eebc bde3 0fbb db39 a8b9
00000130: 10e7 f1bc 1eca 46bc 51c8 dcbc 94d9 f5bb
00000140: 73bf 843c f8f1 dd3b f7e5 0b3d df96 9fbc
00000150: 7c07 b8bc 33ce 37bd c28a 9c3d e907 b83c
00000160: 675e 5fbb 709d b23c 80ef 4437 9455 fbba
00000170: b840 b93d 019b c33b 1186 9fba 467b c1bb
00000180: 49a0 02bd 6b8b 17bb 7027 8f3c 9189 8c3c
00000190: 68c9 7c3d 32b6 ccbc f06e c63c 0627 0dba
000001a0: da11 74bd 9e9e 33bc a62f 8d3c 3253 8d3c
000001b0: ee39 8f3d 7fcc 993b c00b 443c 76fc 583d
000001c0: 392c e83c 3607 f4bc 52d6 603c 20e5 0d3d
000001d0: cd54 f23b a38e 703c 0fc5 803c 5521 03bc
000001e0: 92a9 723c fdcd 763d f191 6b3d 2ead bc3c
000001f0: 93ed c53b d828 a13c 61e2 223c bcb5 d53c
00000200: 4f16 263c c233 c23d d2a9 813d 94b8 0f3d
00000210: 1296 a93c f95b d7bb df8a be3b f39e 213d
00000220: 42a5 52bc d04a 56bc 35b2 5b3b 80e9 853c
00000230: 9542 083c d66a 913d 6b36 913c 6dae cb3c
00000240: 5299 bf3c 3a1c c4bc 964f fb3c cec4 863d
00000250: 94e2 93ba 65c6 e13d 501a 5c3d d15a adbb
00000260: 7be2 a83d a670 e03d f242 153d 697f 003d
00000270: 5348 df3c f4e0 2c3d aa43 8239 9f6b 8a3d
00000280: 63d3 103d 1b5e ef3d 51f4 a73a bbcf 293d
00000290: 218d f73c 467a 5f3c a8c2 a63b b832 913c
000002a0: 52b8 5b3c 225a e23c ee99 b93d d535 5b3d
000002b0: 5008 8b3d 0e10 443c dbcb a53d 2818 cf3c
000002c0: b911 c03c 487b 663d 0358 7a3c a26e a03b
0.0015096619 0.05586552 -0.026948608 -0.021625705 -0.02824217 -0.008503219 -0.014652226 -0.00928896
-0.045362476 0.03596656 -0.01420188 -0.0134181455 -0.007876322 -0.009707537 0.022523629 -0.02887848
0.015984328 -0.017631106 -0.035817314 0.013481341 -0.033564012 -0.06216717 0.004387445 -0.0044350615
-0.011397222 0.0440989 -0.057493106 0.018723432 -0.01032077 0.008211156 0.002519688 0.0092674475
-0.11761578 -0.008885523 0.00073518394 0.03341171 -0.011525589 -0.0056887614 -0.012396538 -0.030333579
0.0029941374 -0.008752549 0.0025459062 0.024625389 0.020833012 0.009970055 0.0035354749 -0.022810865
-0.032809637 0.011108115 -0.030550629 0.030460032 0.0043849763 -0.034524053 -0.036026996 -0.010352919
-0.025036601 -0.041796673 -0.020731805 -0.014393017 0.039764524 -0.0055934545 0.048787095 0.025285417
-0.015569246 -0.076427415 -0.06241045 -0.0663431 -0.007704274 0.019025905 0.008642235 0.018752275
-0.056174494 -0.029096944 -0.002195581 -0.00032086563 -0.029529124 -0.012133149 -0.026950987 -0.007502744
0.016204571 0.0067732297 0.03415486 -0.01948112 -0.022464506 -0.04487438 0.076436535 0.02246471
-0.0034083368 0.021803588 1.1738273e-05 -0.0019175285 0.09045547 0.0059694056 -0.0012170692 -0.005904588
-0.03189114 -0.002312387 0.01747486 0.01715544 0.061715513 -0.024989221 0.024222821 -0.0005384538
-0.059587337 -0.01096311 0.017234635 0.017251585 0.06993471 0.0046935673 0.011965692 0.05297514
0.0283414 -0.029788595 0.013722973 0.03464234 0.007395363 0.014682445 0.015718965 -0.008003552
0.0148109365 0.06025504 0.057512227 0.023031797 0.006040284 0.019672796 0.009941668 0.026087634
0.010137155 0.09482528 0.06331219 0.035088137 0.020701442 -0.0065722433 0.0058148946 0.039458226
-0.012856783 -0.01307936 0.0033522968 0.016346693 0.008316656 0.071004555 0.017726144 0.024863446
0.023388539 -0.02393924 0.030677598 0.06580506 -0.0011282736 0.11024169 0.05373603 -0.005290367
0.08246323 0.10958986 0.036440797 0.031371508 0.027256167 0.04220672 0.00024845946 0.06758808
0.035357844 0.11687871 0.0012813901 0.041457873 0.030218663 0.013639992 0.005089123 0.01772438
0.013410645 0.02763087 0.09062563 0.053518135 0.06788695 0.011966718 0.08095523 0.025280073
0.02344595 0.056269914 0.015279773 0.004896001

running_mean f4 [180]
00000000: 0625 8b3c 0625 8b3c 0b3b 8b3c 103d 8b3c
00000010: 103d 8b3c 753f 8b3c 783e 8b3c 2863 8b3c
00000020: 2863 8b3c a050 8b3c a050 8b3c a050 8b3c
00000030: 2b47 8b3c f854 8b3c df5c 8b3c 8863 8b3c
00000040: 0f2a 8b3c 0f2a 8b3c d81a 8b3c 1e0c 8b3c
00000050: 1e0c 8b3c 3f0f 8b3c d316 8b3c c50a 8b3c
00000060: c50a 8b3c 29fc 8a3c aa15 8b3c b51f 8b3c
00000070: 492d 8b3c 901e 8b3c 3f1b 8b3c cfbd 8a3c
00000080: 97d9 8a3c bc94 8a3c 498b 8a3c fd96 8a3c
00000090: 7d92 8a3c 5783 8a3c 5783 8a3c 3652 8a3c
000000a0: 8e5c 8a3c f559 8a3c aa5c 8a3c 264f 8a3c
000000b0: 264f 8a3c a35f 8a3c a688 8a3c fc78 8a3c
000000c0: cd61 8a3c f576 8a3c 1b76 8a3c a68b 8a3c
000000d0: 1890 8a3c 1890 8a3c ea91 8a3c 6693 8a3c
000000e0: 1d91 8a3c f294 8a3c f294 8a3c ff8d 8a3c
000000f0: 69a1 8a3c 69a1 8a3c e1ca 8a3c 0edd 8a3c
00000100: e7c9 8a3c 8adb 8a3c 8adb 8a3c 50f5 8a3c
00000110: f5e6 8a3c 47ed 8a3c f6e5 8a3c 22f3 8a3c
00000120: 282c 8b3c 1698 dd3b bfad f33b c071 033c
00000130: e872 033c 0368 033c f3c7 043c e9a4 043c
00000140: 2653 273c af3b 673c c32b 6a3c 0366 6a3c
00000150: 0366 6a3c 7ec1 753c 18d5 753c 1af8 753c
00000160: 56c8 753c 2698 753c 54a9 753c 0ac8 753c
00000170: 531a 763c ff0f 763c 6ca1 753c 1604 763c
00000180: d643 763c e018 763c e018 763c 4143 763c
00000190: 76eb 753c 9138 763c 30ba 753c 737a 753c
000001a0: 737a 753c 469d 753c 188f 753c cc89 753c
000001b0: f47c 753c 8972 753c 0873 753c 8ef4 753c
000001c0: cc9e 753c 21b5 753c 40b9 753c 26ca 753c
000001d0: 21c9 6f3c 21c9 6f3c 0c5a 6f3c 8d21 6f3c
000001e0: 464f 6f3c 0122 6f3c a530 6f3c 913a 6f3c
000001f0: 8c2d 6f3c c653 6f3c 3e3c 6f3c 1f22 6f3c
00000200: 003a 6f3c b938 6f3c 0e26 6f3c 4a35 6f3c
00000210: 2934 6f3c a258 6f3c 9dd0 6e3c 9dd0 6e3c
00000220: 42c5 6e3c 8494 643c 6661 643c ff5f 643c
00000230: d37c 643c 7678 643c 7678 643c d949 643c
00000240: d871 633c 7668 633c 05a2 b13c 3b3f a53c
00000250: f837 9f3c f714 9f3c c40c 9f3c 9313 9e3c
00000260: 8560 9e3c 05a9 9e3c 55aa 9e3c 81a1 9e3c
00000270: 84d2 9e3c b4e5 9e3c b498 973c b196 973c
00000280: 4115 883c adf2 c73c f1f0 d33c 9ee9 d33c
00000290: edad d33c 5698 d33c 1e93 d33c bcc1 d33c
000002a0: 8125 d43c a08e d33c 4af5 d03c a055 d13c
000002b0: c5f2 cf3c 861f d03c ce13 d03c d11f d03c
000002c0: 1440 d03c ff07 d03c 96fb cf3c 7b23 d03c
0.016985428 0.016985428 0.016995927 0.01699689 0.01699689 0.016998032 0.01699756 0.017015055
0.017015055 0.017006218 0.017006218 0.017006218 0.017001709 0.01700829 0.017012058 0.017015234
0.016987829 0.016987829 0.016980574 0.016973551 0.016973551 0.016975043 0.016978657 0.016972909
0.016972909 0.016965942 0.016978104 0.016982893 0.016989367 0.016982347 0.016980765 0.01693621
0.016949458 0.016916625 0.01691212 0.0169177 0.016915554 0.01690833 0.01690833 0.016884904
0.016889837 0.016888598 0.016889889 0.016883444 0.016883444 0.016891306 0.016910862 0.016903393
0.016892338 0.016902426 0.01690202 0.016912293 0.016914412 0.016914412 0.01691528 0.016915988
0.016914899 0.016916726 0.016916726 0.016913412 0.01692267 0.01692267 0.016942443 0.01695111
0.016941978 0.016950388 0.016950388 0.016962677 0.016955832 0.016958846 0.016955357 0.016961638
0.016988829 0.006762515 0.0074364836 0.008022726 0.008023001 0.008020404 0.008104312 0.008095958
0.010212695 0.014113351 0.01429266 0.014306548 0.014306548 0.014999745 0.015004419 0.015012765
0.015001377 0.014989888 0.014993984 0.015001306 0.015020925 0.015018462 0.014992099 0.015015623
0.015030822 0.015020579 0.015020579 0.015030683 0.015009752 0.015028135 0.014998004 0.014982807
0.014982807 0.01499111 0.0149877295 0.014986467 0.014983404 0.014980921 0.014981039 0.01501192
0.014991473 0.014996798 0.01499778 0.015001809 0.014635355 0.014635355 0.014608871 0.0145954015
0.014606303 0.0145955095 0.014599 0.014601366 0.014598262 0.0146073755 0.014601765 0.014595537
0.014601231 0.014600926 0.014596475 0.014600107 0.014599838 0.014608534 0.0145761045 0.0145761045
0.014573397 0.0139514245 0.013939237 0.013938903 0.013945776 0.013944736 0.013944736 0.013933622
0.013882123 0.013879886 0.021683702 0.020171752 0.019435868 0.019419177 0.019415267 0.019296443
0.019333133 0.019367704 0.01936833 0.01936412 0.019387491 0.01939664 0.018505432 0.018504472
0.016611697 0.024407709 0.025871726 0.025868233 0.02583977 0.025829475 0.025826987 0.025849216
0.02589679 0.025824845 0.025507588 0.025553524 0.025384316 0.025405657 0.025400069 0.025405796
0.02542118 0.025394438 0.02538852 0.025407543

running_var f4 [180]
00000000: 4e11 653f 4e11 653f b212 653f 3b12 653f
00000010: 3b12 653f f810 653f a010 653f 8810 653f
00000020: 8810 653f 2212 653f 2212 653f 2212 653f
00000030: c611 653f 1e12 653f 8b11 653f f710 653f
00000040: d810 653f d810 653f 9f0f 653f 4310 653f
00000050: 4310 653f 2a12 653f 4113 653f 8a14 653f
00000060: 8a14 653f b213 653f 0d13 653f 3a13 653f
00000070: 7e13 653f bb13 653f ed12 653f 230f 653f
00000080: 6112 653f 062a 653f 9b29 653f 6c28 653f
00000090: 1b29 653f 6a27 653f 6a27 653f ac28 653f
000000a0: cf29 653f 432a 653f 782b 653f 942b 653f
000000b0: 942b 653f fa29 653f 622a 653f 0529 653f
000000c0: 8f29 653f a928 653f 0a29 653f d629 653f
000000d0: 7228 653f 7228 653f 2f2a 653f fe2a 653f
000000e0: f22b 653f 932c 653f 932c 653f 7b2b 653f
000000f0: 882a 653f 882a 653f 832c 653f b02d 653f
00000100: ba2d 653f 9830 653f 9830 653f 4230 653f
00000110: ed2f 653f c42f 653f e12d 653f 322c 653f
00000120: 252c 653f f60a 6e3f 60f5 6d3f e9ec 6d3f
00000130: 3ced 6d3f 41eb 6d3f db6f 6e3f 6a6f 6e3f
00000140: bacc 693f 59a0 643f 4e68 643f 3569 643f
00000150: 3569 643f c814 643f b214 643f 5913 643f
00000160: 1314 643f c513 643f db13 643f 790c 643f
00000170: 500b 643f 130c 643f 850a 643f 760c 643f
00000180: d10b 643f 4709 643f 4709 643f 130b 643f
00000190: fb08 643f c409 643f cc08 643f 5907 643f
000001a0: 5907 643f 7a07 643f 5406 643f 3107 643f
000001b0: 4708 643f 2607 643f 5006 643f 5606 643f
000001c0: ac06 643f 7507 643f e106 643f 0707 643f
000001d0: f333 643f f333 643f b632 643f 7c3d 643f
000001e0: d33a 643f 623a 643f 8a3a 643f d63a 643f
000001f0: fd38 643f 5239 643f 7737 643f 8a37 643f
00000200: fc36 643f 0a36 643f 5135 643f 5736 643f
00000210: ce37 643f 2b38 643f a937 643f a937 643f
00000220: fb36 643f 9225 643f 0226 643f f424 643f
00000230: 3128 643f 5628 643f 5628 643f db2a 643f
00000240: 3b27 643f a126 643f 01d1 5d3f 6cad 673f
00000250: 0f28 683f 7223 683f 1425 683f 509b 673f
00000260: d3a0 673f baa1 673f e1a0 673f b99f 673f
00000270: 2e99 673f a98e 673f 5f09 683f ed09 683f
00000280: a8f3 673f b6f5 673f 084c 673f 084e 673f
00000290: c64d 673f f04d 673f cf67 673f 7e67 673f
000002a0: 7962 673f bd57 673f de54 673f 945a 673f
000002b0: 955d 673f 605f 673f 0a5e 673f 585e 673f
000002c0: 8957 673f 9858 673f 4e5c 673f 4b5b 673f
0.8947953 0.8947953 0.8948165 0.8948094 0.8948094 0.8947902 0.8947849 0.8947835
0.8947835 0.89480793 0.89480793 0.89480793 0.89480245 0.8948077 0.89479893 0.8947901
0.89478827 0.89478827 0.8947696 0.8947794 0.8947794 0.8948084 0.89482504 0.89484465
0.89484465 0.8948318 0.89482194 0.8948246 0.8948287 0.8948323 0.89482003 0.8947622
0.8948117 0.8951725 0.8951661 0.89514804 0.89515847 0.89513266 0.89513266 0.89515185
0.8951692 0.8951761 0.89519453 0.8951962 0.8951962 0.89517176 0.89517796 0.89515716
0.8951654 0.8951517 0.89515746 0.8951696 0.8951484 0.8951484 0.8951749 0.89518726
0.8952018 0.8952114 0.8952114 0.8951947 0.8951802 0.8951802 0.89521044 0.8952284
0.895229 0.89527273 0.89527273 0.8952676 0.89526254 0.8952601 0.8952313 0.8952056
0.89520484 0.92985475 0.9295254 0.9293962 0.92940116 0.92937094 0.9313943 0.93138754
0.9132801 0.8930717 0.89221656 0.89223033 0.89223033 0.8909421 0.8909408 0.8909202
0.8909313 0.89092666 0.890928 0.8908153 0.8907976 0.89080924 0.8907855 0.89081514
0.8908053 0.89076656 0.89076656 0.890794 0.89076203 0.890774 0.8907592 0.8907371
0.8907371 0.8907391 0.89072156 0.89073473 0.8907513 0.8907341 0.8907213 0.8907217
0.8907268 0.8907388 0.89072996 0.8907322 0.8914177 0.8914177 0.8913988 0.8915632
0.8915226 0.89151585 0.89151824 0.89152277 0.8914946 0.89149964 0.8914713 0.89147246
0.891464 0.8914496 0.89143854 0.89145416 0.8914765 0.89148206 0.8914743 0.8914743
0.89146394 0.8911983 0.89120495 0.89118886 0.8912383 0.8912405 0.8912405 0.8912789
0.8912236 0.89121443 0.8664704 0.90498996 0.90686125 0.90679085 0.90681577 0.90471363
0.90479773 0.9048115 0.90479857 0.9047809 0.9046811 0.9045206 0.906393 0.90640146
0.90606165 0.906093 0.9035039 0.9035344 0.9035305 0.903533 0.90392774 0.9039229
0.9038463 0.90368253 0.9036387 0.90372586 0.9037717 0.90379906 0.9037787 0.9037833
0.90367943 0.9036956 0.9037522 0.90373677

weight f4 [200, 180]
00000000: f39b 513d de96 353d c7e3 893d 92ca 8ebc
00000010: e7ba 6dbc bdc2 63bc 0209 05bd 7f24 34bd
00000020: fc34 9b3d 8dc1 803d 1db2 69bb 0ee2 3ebd
00000030: 5a20 44bc a3e5 203d 1dd0 61bd bfd0 7dbd
00000040: be06 4c3c d058 d43c 9086 263d 3d6d ad3c
00000050: 490a 93bc e015 cf3c 9796 253b 5cb6 74bc
00000060: 16f9 26bd 12fc 40bc 891c 813d 8eb8 5cbc
00000070: 94d9 103d 2c6f d13c b7f3 2b3d 9204 7f3c
00000080: 5094 27bc bf41 883d f21d 2a3d 02f9 85bd
00000090: 3a3b 20bd cae6 cbbc c7d0 803d 14b5 79b9
000000a0: 0589 373d 6e7a 43bd 5c6e 623d 77af 66bc
000000b0: 990a 89bc b468 8fbd 8fbc e43b c63b 07bd
000000c0: 3067 273c 51f4 9dbc 9e26 3dbd 2e59 3bbc
000000d0: d8aa 873d 848b e33c cb28 b13c 3d9a 993d
000000e0: b15d 103b 8488 b73c 7bf9 603d 90e3 863d
000000f0: 294c ca3a b23b 693d 2c92 a9bc f033 af3c
00000100: 9b3c 863c 75bd 1f3d 5769 693d 9764 b23c
00000110: 0c45 8c3d d45f 06bc 3588 7bbc e96b 26bd
00000120: ac3d 85bd 8f57 a73d cec0 b63c 13fe acba
00000130: 71d2 1ebd e6e8 c63d 7d23 69bc b694 373d
00000140: d453 51bd 3a6e 13bd 2abd a23c 3732 e03c
00000150: 2c13 643d e27c 3a3d 9f9a 1c3d d7b0 bfbc
00000160: 9f34 f4bc 34b6 673d 1380 833d 6299 4fbd
00000170: c7df a0bc 3ea9 123d cdb5 603d 4928 1e3d
00000180: bd0e 943b 4ec7 ac3c 3e09 873b 28b5 84bc
00000190: 5dcf e63b 6147 a03c 2299 babb 0cd1 8e3c
000001a0: 0e9c 89ba e46b 553d b50d 9ebd 249b eebc
000001b0: 71e9 eebc 0088 de3c c91d 73bc 40aa 75bd
000001c0: 246a 39bd 49f3 373d bb63 843d a179 253d
000001d0: e7ba 86bd 3c26 ad3c 4106 94bd 25e6 38bd
000001e0: 5a35 9b3b 25f7 cbbc 6aae 993c b7bb 16bd
000001f0: e577 b53b 4aec 25bd e98b c53c 7a70 97bd
00000200: 3682 30bb 88ad 2cbd 402c d1bd 6fc2 233a
00000210: 2e05 a3bd b1ba d23c 1e5a 9dbd 400a e33b
00000220: a3ed d83c 2c0b ff3c dc9b 70bd 740f 75bd
00000230: bc27 b4bd c9ce c83c 5b0d 203d 11f3 6cbd
00000240: ede7 babd c754 babb cda2 e73c c492 9e3d
00000250: 7150 de3d 57fd 843d 88ba 963d 8f8d d33d
00000260: 52b6 a33d 3542 a83d 615c d0bc 84d6 f23c
00000270: 0c48 303d 9d86 53bc 4ba4 21bb 40f1 bc3c
00000280: ba5e a6bc 122f dd3c a6d3 79bd 2392 163d
00000290: abff 843d dd0f 723c 50dd 0abd 0251 8bbd
000002a0: f7d7 3e3d 8900 56bd bcad a6bc f6a3 953d
000002b0: f73c ff3c 1102 21bc e3a4 ea3a f1ed d5bb
000002c0: 4f30 8abd d804 90bd 943a 883d e48e 973c
000002d0: c3b5 9a3d 67f8 b33d db43 bc3d 5315 1b3e
000002e0: 4c48 b03d 7b3f 273d 16e3 b33d 70cf 183d
000002f0: 9eae fd3d d873 1a3e ae26 bf3c 5f56 963d
00000300: 6b8a 143e 8193 323d 6589 9a3c 2ee4 f33d
00000310: 07a8 d23c 3849 b23d de16 c03d af0a 1e3e
00000320: ecb2 063e b60a 4a3d 779a 143e aa9f 183e
00000330: 1aeb fc3d b22b a23d e4a8 5e3c e63a 1e3e
00000340: 66a6 e73d 5446 683d c379 943d b8ba be3d
00000350: ce68 153e 50e6 0b3d 93ae a33c e0a9 e43d
00000360: 704f 293d ce37 e93d 3e59 1c3d 08f4 aa3d
00000370: 7ef8 f23c f6be cb3d 48f4 ae3d 9d0a a23c
00000380: 99bd ab3d 1b9a ca3d a941 1f3e 0499 833d
00000390: f925 e43c b58b fd3c 3e6a b13c f49b 1e3e
000003a0: 850e 753d e0e6 1b3e c68d 9e3d 71b1 0a3e
000003b0: f752 303d 3b98 233d daf0 c83d 62bd 123d
000003c0: 65a0 813c a8a3 a63d 91c7 9a3c 9aa4 173d
000003d0: 0d91 083e 3744 963d 9f71 3e3d 89db e43d
000003e0: 5f20 a13c 1102 ee3d a47f d33d 383e a63d
000003f0: d92a a63c 6ef1 453c 9e0c 91bb 6021 be3d
0.051174115 0.04433333 0.06732898 -0.017430577 -0.014509893 -0.01390141 -0.032479294 -0.043980118
0.07578465 0.06286917 -0.0035659142 -0.0466023 -0.011970604 0.0392815 -0.055130113 -0.061966654
0.012452779 0.025921255 0.040655673 0.021170253 -0.01794924 0.025278986 0.002526676 -0.014936056
-0.04076489 -0.011778848 0.06304271 -0.013471736 0.03536375 0.025565706 0.04198047 0.0155650545
-0.010228232 0.06653165 0.041532464 -0.06541635 -0.039118983 -0.024890322 0.06289821 -0.00023813947
0.044808406 -0.04772418 0.05528103 -0.01407992 -0.016728686 -0.070023924 0.0069804857 -0.03301599
0.010217473 -0.019281538 -0.046179406 -0.011434836 0.06624383 0.027776487 0.021625897 0.07500122
0.00220285 0.022403963 0.054925423 0.06586373 0.0015434074 0.056941696 -0.020699583 0.02138707
0.01638632 0.03899904 0.056985226 0.02177648 0.06849107 -0.008201558 -0.0153522985 -0.040630255
-0.065059036 0.08170997 0.022308733 -0.0013198279 -0.03877491 0.097123906 -0.0142296525 0.044819556
-0.051105335 -0.035993792 0.019865591 0.027367694 0.055682346 0.045529254 0.038233396 -0.023399753
-0.029810248 0.056570247 0.064209126 -0.050683387 -0.019637955 0.035805933 0.05486088 0.038612638
0.0045183585 0.02109113 0.004120975 -0.016199663 0.0070437626 0.019565286 -0.0056945244 0.017433666
-0.0010498778 0.052104846 -0.07717458 -0.029126711 -0.029164048 0.02716446 -0.014838644 -0.059976816
-0.04526724 0.04490975 0.064643346 0.040399197 -0.065786175 0.021136396 -0.07227755 -0.045141358
0.0047365846 -0.024898121 0.018759925 -0.036800113 0.005537974 -0.040508546 0.024114566 -0.073945
-0.002693308 -0.04215768 -0.10213518 0.00062469294 -0.07959972 0.025723787 -0.07683204 0.006928712
0.026480502 0.031133257 -0.05874239 -0.05982919 -0.08796641 0.024512665 0.039075237 -0.057848994
-0.091262676 -0.005686376 0.028275872 0.07742837 0.10855187 0.06493633 0.07359797 0.103297345
0.07993759 0.08215753 -0.025434675 0.029643305 0.04303746 -0.012910512 -0.0024664577 0.023064256
-0.020308841 0.026999984 -0.06099286 0.03676046 0.06494077 0.01477429 -0.033902466 -0.068025604
0.04659268 -0.052246604 -0.020346515 0.07306664 0.031157 -0.009827153 0.0017901923 -0.006528609
-0.067474954 -0.07032174 0.06651798 0.018500753 0.075541995 0.08787613 0.0919263 0.15144853
0.086075395 0.040832024 0.087835476 0.037307203 0.12386821 0.15083253 0.023333874 0.07340693
0.14505927 0.043597702 0.018864343 0.11908756 0.025714887 0.087053716 0.093793616 0.15433763
0.13154191 0.04932662 0.14512049 0.14904657 0.123495296 0.079184905 0.013590071 0.15452155
0.11311035 0.056707695 0.07249787 0.093129575 0.14590761 0.03415519 0.019980704 0.111652136
0.041335523 0.11387597 0.038171045 0.083473265 0.029659506 0.09948532 0.08542687 0.019780451
0.08385772 0.098926745 0.15552391 0.0642567 0.027850138 0.030950407 0.021657106 0.15489179
0.0598283 0.1522479 0.07741885 0.13544251 0.04304787 0.0399401 0.09811564 0.03582514
0.015823552 0.08136684 0.018893989 0.03702221 0.13336582 0.0733723 0.046495076 0.111746855
0.019668756 0.11621488 0.1032708 0.08117336 0.020284103 0.012081487 -0.004426553 0.092837095

weight f4 [200]
00000000: dbf9 763f ad04 813f 76c4 6f3f a44c 853f
00000010: 612a 813f fb44 713f fc95 7b3f 04a3 863f
00000020: 9b6b 833f da1b 813f 787f 833f 0ba5 7e3f
00000030: f820 8e3f b417 713f 1632 7c3f a898 803f
00000040: 9a6b 873f fe4b 7e3f 264f 703f a697 793f
00000050: 2790 863f a7fb 7f3f 7970 743f 99fd 713f
00000060: aa3d 743f 05dc 763f 66f5 7a3f ffc6 823f
00000070: bb9a 813f fdae 823f be8a 7d3f cd81 793f
00000080: 9779 833f 6db3 723f bae9 853f 8f4f 8d3f
00000090: 79c9 753f 8bad 7b3f 58c0 743f 667b 833f
000000a0: 2e92 853f bed5 833f c578 6e3f 73b9 7b3f
000000b0: dcdf 873f 1f8c 6d3f 57d2 873f 0cfa 783f
000000c0: 7df7 793f 45c3 7a3f 9cb5 823f 8cfb 7a3f
000000d0: 1bce 783f 3694 793f d8bf 843f 0fc9 733f
000000e0: de73 833f f7f0 703f 9b6c 843f 6a9b 7a3f
000000f0: 08e4 7d3f d143 6e3f a5b9 833f 5363 7c3f
00000100: 7aa0 803f 1351 7d3f 1e82 7f3f bc69 7b3f
00000110: 5b50 7d3f 20f5 833f db83 843f 4d76 7d3f
00000120: ea63 723f 7ab8 7c3f 1438 783f 1c42 8e3f
00000130: cf3b 7e3f 9d92 803f 724f 7b3f 7103 843f
00000140: c579 813f e0f8 7f3f 698d 753f 0fe1 863f
00000150: bf58 833f cce3 823f 8686 7d3f 8fc8 793f
00000160: f0d4 793f cbaf 833f 2b56 713f e95c 7f3f
00000170: 6b4f 793f 718c 7f3f 71b4 8b3f 04d2 773f
00000180: 9e92 7e3f 064f 783f 6573 833f af24 803f
00000190: 4c94 7c3f efb8 723f 8f9a 8d3f fd57 823f
000001a0: b734 7a3f 4dfc 803f 730b 7f3f e501 803f
000001b0: a7de 733f 2da6 803f 6c20 7d3f 433d 803f
000001c0: cbfc 7c3f cec6 7d3f 3248 7b3f e0bb 883f
000001d0: 5801 6a3f e895 7d3f 82ea 6c3f edb5 7f3f
000001e0: a083 733f 625c 803f 75cd 7e3f 7239 803f
000001f0: 111c 813f 87ad 883f 22a1 803f bc6d 793f
00000200: 4563 733f 139d 743f 1ede 7b3f 22fb 773f
00000210: b63e 763f 4f57 803f b3d1 7a3f bcb3 7f3f
00000220: c6e7 7a3f f030 813f 83a3 7a3f 906f 703f
00000230: a248 6f3f 06ee 823f ddd7 803f 81b9 7f3f
00000240: e19f 7c3f 380b 7f3f 2d9a 793f ff74 7a3f
00000250: cb04 863f b7d4 7c3f 5906 853f 6957 793f
00000260: 384b 833f 623d 733f a486 783f 9600 713f
00000270: fc99 843f b7fa 7c3f 850c 813f 144f 703f
00000280: 0894 823f b255 7d3f bb74 8b3f 1995 7e3f
00000290: e96d 753f 2f31 7f3f 6565 7b3f e5bf 833f
000002a0: c183 723f 67b6 6f3f 9e25 7d3f c6d2 903f
000002b0: 4172 7b3f 8d93 803f b987 7c3f 1015 873f
000002c0: 7f08 7b3f 98c2 7a3f 97a7 783f 770f 793f
000002d0: 177f 803f eb6b 813f 35b3 7f3f 6992 7d3f
000002e0: 81cd 813f 7bd4 7a3f 2412 713f 8ce9 7e3f
000002f0: 41e6 853f 2cb1 843f 8328 843f db2c 7d3f
00000300: 13da 783f 0b8b 7e3f de31 7e3f 703f 7e3f
00000310: ec65 843f 2e43 813f 1a59 7c3f fdd9 853f
0.96475 1.0079552 0.9365915 1.0414014 1.0091058 0.9424588 0.98275733 1.0518498
1.0267214 1.0086625 1.0273275 0.99470586 1.1103811 0.94176793 0.98513925 1.0046587
1.0579712 0.99334705 0.9387077 0.9749702 1.0512742 0.99993366 0.9548412 0.94527584
0.9540659 0.96429473 0.980307 1.0216979 1.0125345 1.0209652 0.9903983 0.97463685
1.0271481 0.9480503 1.0461953 1.1039904 0.9601055 0.9831168 0.95605993 1.0272033
1.0435236 1.0299604 0.9315303 0.9832985 1.0615191 0.9279193 1.0611066 0.9725654
0.9764326 0.9795421 1.0211673 0.9804008 0.9718949 0.97491777 1.0371046 0.95228666
1.0269735 0.94117683 1.0345644 0.97893393 0.99176073 0.9307223 1.0291029 0.98589057
1.0048974 0.98951834 0.9980792 0.9820821 0.9895074 1.0309181 1.0352739 0.9900864
0.94683707 0.9871899 0.9696057 1.1113925 0.9931001 1.0044743 0.981681 1.031355
1.0115286 0.9998913 0.959189 1.0537432 1.0261458 1.0225768 0.9903339 0.97571653
0.9759054 1.0288023 0.94272107 0.99751145 0.9738681 0.9982367 1.0914441 0.96804833
0.9944247 0.9699558 1.0269591 1.0011195 0.98663783 0.94813436 1.1062793 1.0183102
0.97736686 1.0076996 0.99626845 1.0000578 0.95261616 1.0050713 0.98877597 1.0018696
0.9882323 0.99131477 0.98157036 1.0682335 0.914083 0.99056864 0.9254533 0.9988697
0.9512272 1.0028193 0.9953225 1.0017531 1.008669 1.0677956 1.0049174 0.97433066
0.9507335 0.95552176 0.983858 0.96867573 0.9618944 1.0026644 0.97976226 0.9988363
0.9800991 1.009306 0.9790575 0.9392023 0.93470204 1.0228889 1.0065876 0.9989243
0.98681456 0.99626493 0.9750088 0.9783477 1.0470213 0.9876208 1.0392562 0.97399
1.025733 0.9501554 0.97080445 0.9414152 1.0359492 0.9882006 1.0081946 0.93870664
1.0201426 0.98958886 1.0894998 0.99446255 0.95870835 0.99684423 0.9820159 1.0292937
0.9473229 0.936377 0.98885524 1.1314323 0.9822121 1.0045029 0.98644596 1.0553303
0.9805984 0.97953176 0.9713072 0.9728922 1.0038785 1.0111059 0.99882823 0.9905153
1.014084 0.9798047 0.94168305 0.99575114 1.0460893 1.0366569 1.0324863 0.9889657
0.97207755 0.9943091 0.9929484 0.9931555 1.0343604 1.0098627 0.9857346 1.045715

bias f4 [200]
00000000: 3daf 7b3d be97 1fbc 9092 083d 48b9 3d3c
00000010: 2c3e 09bd 6bbe 8a3d 86e2 ed3b ca5a 6dbd
00000020: f283 3f3d f17c 2dbd 008e 183d be13 8abd
00000030: b3c3 abbd ba53 3ebd 3da3 b3bc 9893 98bc
00000040: 879a f1bc 63d0 4bbd c68a a63d c5e4 813d
00000050: 8b70 5dbd 2d94 40bc bc93 563c b01d 673d
00000060: 5462 22bd 7c7b 1c3d bdc4 7dbc e1a3 88bc
00000070: 1c2e 7abd de98 f1bc db2d a6bc 3776 37bc
00000080: 188b 953b 5173 0c3d 391c 93bd 4524 0e3d
00000090: 9192 8dbd 880e ea3c 5440 a73d 81bf bc3d
000000a0: 59ef d6bc 51a8 08bd c354 f23c 70f3 4b3d
000000b0: 16f8 d13c 2ce9 25b9 44d6 d43d b85a 313c
000000c0: 9e5e 183a a068 403d 4710 afbc 87e4 a33c
000000d0: 4b52 4dbd aa09 d33d e71c dc3c e2d0 9c3d
000000e0: 0e49 503d 3a69 b03d 9e9d bdbc f25b 15bd
000000f0: 4e54 ef3b 53ab 343d 562b b7ba ed41 c03b
00000100: 0188 95bd b514 da3d cd6a b5bb 8e60 f8bc
00000110: 9cee 813d 1165 033e 2b41 80bc 5e98 033e
00000120: ff8b cd3b d11f a13c 9a54 f53c a6c2 85bd
00000130: beca 2d3d 303b bf3d 6755 da3c eee2 3abc
00000140: 6dc8 35bc 16e6 33bc 2a7f d83d 469d 8dbc
00000150: 940a 18bd 932c 5b3b 76b4 aa3d d7de 583d
00000160: a814 84bd 421c 593c c80a 90bb c420 debc
00000170: d082 bd3d 59ee e13c 3c1b 2b3c a2dd 5d3c
00000180: d97a 18ba 698d 543d a279 b33b 2e5c 4dbd
00000190: 8a33 b6bc a599 9b3c b1ff 773d 2dd1 573a
000001a0: 38ec edbc 676c 86bd d16d 0a3c 1e8a 06bc
000001b0: 918e 4b3b 6fd9 bc3c 153d ac3c b637 d6bb
000001c0: 14b2 133d 61ac ab3d a218 2bbd 28e4 5ebd
000001d0: 801a 3b3d 7b60 683d 7389 253c e4eb 123d
000001e0: 20c5 f73c 0743 3a3d d5c3 00bd 6d68 e6bc
000001f0: 1028 babd dd3a 2a3d 6cb2 1cbd 22a6 91bd
00000200: d820 6c3c 6203 7d3d c54c c83d b9e7 9e3d
00000210: 61e0 25bd 14f0 a03d 7886 853d 3f8f 393c
00000220: 5054 8f3d 2a81 8fbc 6caf aebc 8eda b13a
00000230: 215a 4a3d 7226 6fbd 77e8 613d ae43 1ebd
00000240: bf5e 0b3d c4d8 7dbc b21e 32bd 4fe3 453d
00000250: bec3 5dbb 9b7b 3a3d 1f43 7ebd cca0 a9bc
00000260: 8768 edbc 244f b23c 44f9 e3bc ba77 6e3d
00000270: 6376 b73b 3eea 493d a1cd 24bd c844 61bb
00000280: 88e9 8cb9 3fad e7bb 8010 39bd c34b b23d
00000290: 038d 813c a5b7 02bd a282 3ebb 1014 0fbd
000002a0: 1649 e53c e1a9 13bd ba12 2bbd 0471 a23c
000002b0: 458e 95bd 9401 b03c 548b c13b 9c09 ee3b
000002c0: 03aa 18bc 9161 a13d f459 793d efdc 3abd
000002d0: 48bc 483d 03aa f9bb 764e 14bc b326 df3c
000002e0: 8e98 fabc 1271 ad3d 1396 8f3d 5848 a4bc
000002f0: d6ce e3bc d0ed 27bd 5be3 8bbd 2478 243d
00000300: 781e 9e3d be90 9d3d e5ad 8dbc a566 94bd
00000310: 0c70 fa3c a489 183c f61a 1d3d 99a9 acbd
0.061446417 -0.009740768 0.033342898 0.011579819 -0.033506557 0.067746006 0.0072596697 -0.05794791
0.046756692 -0.04235548 0.037244797 -0.06742047 -0.08386936 -0.046466567 -0.021928424 -0.018625066
-0.02949263 -0.04975928 0.08131938 0.063424625 -0.054062407 -0.011754078 0.013096746 0.056424797
-0.039644554 0.0382037 -0.015488801 -0.016679706 -0.06107913 -0.029491838 -0.020285537 -0.011197618
0.0045637004 0.03428966 -0.071831174 0.034702558 -0.06912721 0.028571382 0.081665665 0.09216214
-0.026237177 -0.033363644 0.029581433 0.049792707 0.025630992 -0.0001582249 0.103924304 0.010824852
0.0005812439 0.04697478 -0.021370066 0.020006431 -0.05012731 0.10304578 0.02686925 0.07657029
0.05085092 0.086138204 -0.023146447 -0.03646464 0.007303751 0.0441087 -0.0013974707 0.005867234
-0.07301331 0.10648481 -0.0055364133 -0.030319478 0.06344339 0.12831523 -0.015656075 0.12851092
0.0062727924 0.019668492 0.029947568 -0.06531267 0.04242968 0.09337461 0.026652051 -0.011406643
-0.0110951485 -0.01098015 0.105711296 -0.017286908 -0.037119463 0.0033443316 0.083352014 0.05294689
-0.06449252 0.013251366 -0.0043958165 -0.027115233 0.09253466 0.027579473 0.010443505 0.013541611
-0.00058166456 0.05189267 0.0054771462 -0.050136738 -0.022241373 0.018994162 0.06054658 0.0008232769
-0.029043302 -0.06563645 0.008449034 -0.008211641 0.0031060318 0.0230529 0.02102522 -0.006537403
0.0360585 0.08382488 -0.04177154 -0.054416806 0.04567957 0.056732636 0.010103571 0.035869494
0.030245364 0.04547408 -0.03143676 -0.028125966 -0.090896726 0.041560043 -0.038256094 -0.071117654
0.014412127 0.061770804 0.097802676 0.07759041 -0.040497188 0.07858291 0.065197885 0.011325656
0.06998503 -0.017517645 -0.021323882 0.0013569163 0.04940236 -0.058386274 0.055153336 -0.038638763
0.034025904 -0.0154935755 -0.043486305 0.04831248 -0.0033838595 0.045528036 -0.06207573 -0.020706557
-0.028980507 0.021766253 -0.02782882 0.05821965 0.0055988296 0.049295656 -0.040235166 -0.0034373272
-0.00026876875 -0.007070213 -0.04518175 0.08705857 0.01581431 -0.03191342 -0.0029069562 -0.034931242
0.027988952 -0.03605068 -0.041765906 0.01982928 -0.073025264 0.021485128 0.005906502 0.007264329
-0.009317878 0.078799374 0.0608768 -0.045620855 0.049007684 -0.007619144 -0.00905191 0.027240133
-0.030590322 0.08468832 0.07011046 -0.020054027 -0.027808588 -0.04099828 -0.06830474 0.040153638
0.07720655 0.07693623 -0.017294833 -0.072461404 0.030571006 0.00931016 0.03835579 -0.08430786

running_mean f4 [200]
00000000: 1e6b f93e 5b74 1540 d959 1e3f f656 a43f
00000010: eda0 803f bc9b 0440 64af 8a3f e1f3 073f
00000020: 0bae db3e b009 f33e 6c8e 513f 6b3a 223f
00000030: 7373 bf3e 609b 843f 2826 143f 9dcf 553f
00000040: 966e 7e3f b44c 8f3f d5b6 353f 7a97 113f
00000050: cae3 e73e 97cb 123f 9fb9 1f3f 9cff b53f
00000060: a66c 803f ba48 443f 1c56 3e3f d39e 933f
00000070: 1e36 e13e 9131 133f 70e7 353f 66ef 673f
00000080: ebe6 933f 93fc ad3f 4e02 163f bd6b 673f
00000090: a027 893f c9ab 883f 5c69 1e3f 168c 993f
000000a0: 87d0 053f 43cc 773f 8334 873f 293e 713f
000000b0: 28e0 863f 522a 9d3f 62bb a03f 0cad 073f
000000c0: 9d44 913f 8019 503f 8a69 323f 66c6 633f
000000d0: afb9 553f 25da 913f 814b 4e3f 2123 1c3f
000000e0: 621f 9f3f 7c65 cf3f 761f b83f ccaf e03e
000000f0: 7481 cf3f a815 c13e c182 993e 3cac cf3f
00000100: dfca 053f 8864 373f ee01 8f3f d297 2e3f
00000110: 61cd 203f d4c6 ab3f 4823 b13f 9196 053f
00000120: 0e57 a03f cec5 933f 2acf 863f 45fc f53e
00000130: fd49 923f 0ab8 4a40 a57c 9a3f 2f8d 7d3f
00000140: abd8 183f 7f65 d13e 7b04 813f f054 953f
00000150: d1af 833f 4392 6f3f 813c 813f 333f 563f
00000160: fceb 643f 3314 253f 63b2 4e3f 6051 993f
00000170: de2d f63f 12a0 343f 3520 e23e 8150 1d3f
00000180: 4160 363f 3712 a73f bca1 893f ccc1 9d3f
00000190: eb76 563f 29ae 023f c6ab 163f a448 c53f
000001a0: 7fd0 5a3f 5df1 db3e 2496 963f 1917 5b3f
000001b0: e35b 913f 18b9 403f 2b4b 4e3f b25c 4a3f
000001c0: ebe4 af3f bf13 2940 18f1 363f 2a6d 203f
000001d0: 7a91 743f c2c6 423f 6f9e 473f 7031 2d3f
000001e0: 787e 983f 6b6c 463f 3ae8 0b3f 68b5 fe3e
000001f0: afd6 773f 282e ed3e 4584 703f 9c33 8b3f
00000200: 7e78 693f 204c 9a3f 5486 4e3f b0e8 1e3f
00000210: 94ba 9b3f c7e1 253f 7f61 ce3f 29df df3f
00000220: 5dbf 713f e29a 783f 360a d53f 2f18 693f
00000230: 953e 3f3f 7b6e 5b3f 2833 213f 7cba ec3e
00000240: 29b4 563f af2a 1d3f dbf2 863f 5d3e 4d3f
00000250: ac8f 403f 3c45 953e 4337 c93f 1609 613f
00000260: 4da7 593f a351 1540 f882 223f 56c9 5a3f
00000270: fbf6 523f 626a 1940 2b35 aa3f 0dc2 143f
00000280: d0f7 f83f aac5 843f 6f5b 143f 4be2 a43f
00000290: 3d6e 573f a0b3 8e3f 6489 573f 1c89 953f
000002a0: fa55 d93e 3801 723f 0309 b43f 34c5 e63e
000002b0: 7a67 e33e fdb5 873f cd7c 563f e18b 2a3f
000002c0: 8fc8 8f3f dd99 be3e d07b 543f fe4d 273f
000002d0: b18c 953f b201 883f 8d28 b23e 1c70 493f
000002e0: a633 a23f b4dd 0340 68ae 603f 3838 463f
000002f0: ad61 de3f a1c6 733f 4f42 183f a217 3b3f
00000300: 5f25 1a3f f760 2a3f 0e9f 903f 0853 8d3f
00000310: 84df 9f3f 3e51 f53e 7b88 143f ea3a 413f
0.48714536 2.3352268 0.61855847 1.2839038 1.0049111 2.0720053 1.0834775 0.53106505
0.42906222 0.47468328 0.81857944 0.6337039 0.37392768 1.0359917 0.5787072 0.8351992
0.9938749 1.1195283 0.70982105 0.5687176 0.45290977 0.57341903 0.6239261 1.4218631
1.0033157 0.7667347 0.7435014 1.1532844 0.439866 0.5749751 0.7105627 0.9059967
1.1554846 1.3592705 0.58597267 0.9039877 1.0715218 1.0677425 0.61879516 1.1995876
0.5227131 0.96796054 1.05629 0.94235474 1.0537157 1.227854 1.2557185 0.52998424
1.1349064 0.8128891 0.6969229 0.88974607 0.83486456 1.1394697 0.8058396 0.609911
1.2431452 1.6202846 1.4384601 0.43884122 1.6211381 0.37711835 0.2998257 1.6224437
0.5226268 0.71637774 1.1172464 0.6820041 0.62813383 1.3420053 1.3838892 0.5218287
1.2526567 1.154474 1.0531971 0.4804403 1.142883 3.1674829 1.2069288 0.99043554
0.5970561 0.40897748 1.0079492 1.1666546 1.028803 0.9358255 1.0096589 0.83690184
0.89422584 0.64483947 0.80740947 1.1977959 1.9232748 0.7055675 0.44165197 0.61450964
0.7124062 1.3052434 1.0752482 1.2324767 0.83775204 0.51047 0.58855855 1.5412793
0.8547439 0.42957583 1.1764569 0.8558212 1.1356167 0.7528243 0.8058345 0.7904769
1.3741735 2.6418302 0.7146163 0.6266657 0.9553448 0.7608453 0.77976125 0.6765356
1.1913595 0.7750918 0.54651225 0.49747777 0.96811956 0.46324277 0.9395183 1.0875125
0.9119948 1.2054482 0.8067372 0.620738 1.2166314 0.64797634 1.6123503 1.7489978
0.9443262 0.9711133 1.6643741 0.91052526 0.7470487 0.85715455 0.62968683 0.46236026
0.8386865 0.61393255 1.0542864 0.80173284 0.75219226 0.29154384 1.571999 0.8790449
0.85020906 2.3331077 0.6348109 0.85463464 0.8240811 2.397118 1.3297476 0.581086
1.9450626 1.0372822 0.57952017 1.2881559 0.84152585 1.1148567 0.84194016 1.1682467
0.42448407 0.9453311 1.406525 0.4507233 0.44414884 1.0602413 0.8378418 0.6661969
1.1233081 0.37226763 0.8300142 0.6535338 1.1683561 1.0625517 0.34796563 0.7868669
1.2672012 2.0604067 0.8776612 0.77429533 1.7373558 0.9522496 0.5947618 0.73082936
0.60213274 0.66554207 1.129854 1.1040964 1.2490087 0.47913545 0.5802075 0.7548052

running_var f4 [200]
00000000: 977f c03e 5fb8 fd40 4f17 863f 6f80 1a40
00000010: 795b bd3f 44db 9741 6a72 e13f de84 d53e
00000020: efc1 b03e 6fd9 dd3f 8c92 d93f 01c3 203f
00000030: dcdc 243f a343 b340 8356 0b3f d3e9 4a40
00000040: 0775 da40 3bfb ba40 da6f 4d3f 4d4d 233f
00000050: 6417 8a3f fa67 f43e f391 6540 bc3f 4b41
00000060: f2f3 8a40 a051 813f 4525 b63f 2e3a 6340
00000070: e1eb 943e 3926 fa3e 2e03 7840 eab3 7140
00000080: ff7d f13f 7db6 1541 9f7e 693f 16be c33f
00000090: 55f6 d03f 6df7 7440 28da 693f 6312 1440
000000a0: f608 0c3f dec0 8d40 39c4 e43f 401d 9840
000000b0: d146 d83f 7cfa cb40 e1b0 0241 a088 a53f
000000c0: d96a f03f 05d2 763f 07db 7d3f 5966 8f40
000000d0: ee6c 8b3f 830c 5440 c434 8a3f 763c 303f
000000e0: 74e4 1940 aec4 4e41 3926 4740 10ea e33e
000000f0: cddf 7d40 2001 973e e952 073f ec1f 6541
00000100: c1e1 0440 b5cd 403f 0f1e 9440 7eb8 453f
00000110: 4cd4 383f 32c3 4740 1755 4140 65d6 ea3e
00000120: 673a cf40 1316 f43f 3819 d03f 4839 a13f
00000130: ba80 9340 fc7c 8641 dce6 0c40 3b22 dd3f
00000140: 99b1 3b3f bb36 b93e 8cc3 bc3f 3bb7 f83f
00000150: a9c3 ca3f 987c a53f 0f94 bd3f 1455 4540
00000160: fb2d ac40 aa9e af3f 1fa1 3440 4f87 0a40
00000170: f3ac 5d41 215b 3c3f e622 913f 2467 0a3f
00000180: b77d 3040 87f1 1840 a462 d53f 91e3 2140
00000190: c08b 913f ddbe cf3e f05b 543f 5f86 5f40
000001a0: 0f53 ad40 2845 963e 6c40 c940 7c30 933f
000001b0: 99de 9c40 a7a6 1a40 0149 d13f d585 7c3f
000001c0: e583 1041 0c76 2641 0833 3b40 7342 8e3f
000001d0: ddf0 3840 45b7 823f 2771 0940 b83f 503f
000001e0: 06e0 0840 4873 773f b652 e23e 8c6a 0f40
000001f0: 7b9c b53f bf93 823f c718 3d40 9380 db40
00000200: 45e3 7040 8e5e aa40 c7ba b03f 39ea 1b3f
00000210: 4972 d240 1f7f 413f 754f 8440 e656 9840
00000220: cd9a 2540 58d3 1840 324d 1441 913e 7e40
00000230: f895 623f a2ba 8f3f 037b 253f e4d7 ab3f
00000240: 9338 5140 ccf6 b73f 7a16 ac40 fff2 6f3f
00000250: 3f73 863f 6794 393e 7122 6d40 50ed 8b40
00000260: f87c 843f ca03 9e41 84c6 ff3f 04e6 1c40
00000270: a93a 753f fa69 1241 ec9d 3e40 6cd4 573f
00000280: 036b b840 3cd1 bc40 6c48 1d3f d07c 1a40
00000290: bd52 6340 f062 b840 1d92 c43f a1f7 1040
000002a0: 18db 8b3e 7280 5040 365e 0541 08d9 853f
000002b0: 7d85 d23f 1b22 dc3f aedf 8d3f 7327 b23f
000002c0: 9efc 9540 719d c03e fe13 3840 b6b9 3a40
000002d0: 8b23 ff3f 9762 6440 8b8b 803e 0166 3240
000002e0: ea55 3140 a3d8 7241 8ad8 983f 2f17 0d40
000002f0: 734a 9940 e8e0 ab3f c84c 0e3f 2bf5 533f
00000300: 6e19 1a3f 55b6 4e3f b944 f83f a61d f23f
00000310: 00bd 1f40 fc66 9c3f 582d b93f 7f6a 563f
0.37597343 7.928756 1.0475863 2.414089 1.479354 18.982063 1.7613041 0.41702932
0.3452296 1.733198 1.6997848 0.6279755 0.64399505 5.6020064 0.5442888 3.1705215
6.8267856 5.843168 0.80248797 0.63789827 1.0788388 0.47735578 3.587033 12.70306
4.3422785 1.0103035 1.4230124 3.550426 0.2908621 0.48857287 3.875194 3.776606
1.8866576 9.357053 0.91208833 1.5292385 1.6325175 3.8276017 0.91348505 2.3136222
0.54701173 4.4297934 1.7872382 4.7535706 1.6896611 6.3743267 8.168183 1.293232
1.8782607 0.96414214 0.99162334 4.4812436 1.0892618 3.3132637 1.0797353 0.68842256
2.4045687 12.9230175 3.111708 0.44514513 3.9667847 0.29493046 0.52860886 14.320293
2.076279 0.75313884 4.6286693 0.7723464 0.7219894 3.1212888 3.0208185 0.45866695
6.475879 1.9069237 1.6257696 1.2595606 4.6094637 16.811028 2.2015905 1.7276071
0.7331787 0.3617457 1.4747176 1.9430918 1.5840961 1.2928648 1.4810809 3.0833178
5.380613 1.3720295 2.822334 2.1645086 13.854724 0.7357655 1.1338775 0.5406363
2.757673 2.3897417 1.6670728 2.5295146 1.1370773 0.40575305 0.82952785 3.4925764
5.416389 0.29349637 6.289114 1.1499171 4.9021726 2.4164217 1.6350404 0.9864171
9.032201 10.40382 2.9249897 1.1114029 2.8897011 1.021218 2.1475313 0.8134723
2.1386733 0.9666028 0.44203728 2.240878 1.4188379 1.0201339 2.9546373 6.859445
3.7638714 5.3240423 1.3807 0.6090427 6.576451 0.75584596 4.1346993 4.7606077
2.5875733 2.3878994 9.2688465 3.9725688 0.88510084 1.1228831 0.64640826 1.342526
3.269078 1.4372191 5.3777437 0.9373016 1.050392 0.18123017 3.7052271 4.372719
1.0350637 19.75185 1.9982457 2.451539 0.95792633 9.150873 2.9783888 0.84308505
5.763063 5.9005413 0.6143863 2.413868 3.551925 5.7620773 1.535709 2.265114
0.27315593 3.2578397 8.335501 1.0456858 1.6446987 1.7197908 1.1083887 1.3918289
4.687087 0.37620118 2.8762202 2.917585 1.9932722 3.5685174 0.25106463 2.7874758
2.7708688 15.17789 1.1941082 2.20454 4.790338 1.3428011 0.5558591 0.8279597
0.6019505 0.80746967 1.9395972 1.8915298 2.4959106 1.2218928 1.4466963 0.8375625

weight f4 [100, 200]
00000000: eefe edbc 02ef 823d 9ed6 f1bc c68b 44bd
00000010: 4916 af3c 6f89 40bd bfb8 7bbd 0c9d 4b3d
00000020: 789c 0dbd b4ba 0c3d ff18 0abe e9be 8d3d
00000030: a114 8fbd 8dcd f8ba c98f b23c ee7a 583c
00000040: 934a 883d baf0 9fbd 2cea 773d b7fc 09be
00000050: c28f 753d 0fb0 49bb 3870 65bd 1cdb 823c
00000060: 7b5c 04bd cb1c 80bc e75b 0d3d 6086 64bd
00000070: b992 a83b 98f7 1ebd 998f 12bc 7230 a83c
00000080: d79c 4cbd 1647 3d3d 4344 703d 6f98 e8bc
00000090: ceee 9ebc cf6b c3bc 10a7 0a3d 7e81 0fbd
000000a0: 8b80 bf3d b719 8f3d 9d3c 79bd c318 82bd
000000b0: 9cee 9b3c 01a4 fd3a b54a 04bd f7a8 1cbb
000000c0: 74b2 cbbc 445f 92bc e771 e53c 6c69 813d
000000d0: d5ca 84ba 6dfe ddbc 8068 7b3c ca61 15bd
000000e0: a652 91bd ee90 723b 33e7 33bd 07b3 97bc
000000f0: 8ea4 3f3d 9d0f 9abd 2ece b03c 70c3 1e3d
00000100: 6b21 e63c 277c 3ebd 9520 0f3c 6643 653d
00000110: bcef acbd 84dd e9bd 8984 53bd ae4d 71bc
00000120: abcb 65bd 63a8 853b 110b 32bc 5c1e c1bc
00000130: afc2 83bd 75c3 8dbd 4a47 743b 7c37 adbd
00000140: 1d38 c23c 5cd3 31bd 0f57 2ebd 43ea 193c
00000150: d6b3 c6bc d41d 51bd b1f3 67bd ea73 8c3d
00000160: de92 283d 0e9a fd3d 2ead 043d 6366 55bd
00000170: 7c79 0f3d 56c7 99bd 4051 b5bd cffb cebc
00000180: 21c7 e83c 6bd3 42bd 83ec 2a3b 639f 33bc
00000190: 12f0 433c 36ba d8bc 431d cabd ec1c 983c
000001a0: 8ea9 bbbc 9af9 e6bb 8868 0cbd 8508 50bc
000001b0: acc3 e3bc 8d37 5abc efbf bd3c db52 213d
000001c0: 83fe 5f3d de60 123d 2b6f c63c 1431 233d
000001d0: 8fc7 873d 26c9 023d c941 793d 34d0 79bd
000001e0: cbe3 2b3d a459 f8bc 972b c93c 185d 623d
000001f0: 9e54 8d3d f6b4 67bd b833 c4bc dc21 3dbd
00000200: 6e55 8f3c 0077 cebc 142e 5abd c351 61bd
00000210: 96f5 9ebd 9bcc eebd 27eb 053d c53a 69bd
00000220: 3e54 96bd 108b 913c 808c b337 1393 023c
00000230: f060 81bc 14a7 9c3d 2d1c 553d d619 713d
00000240: 7dd0 97bd 1b8e e83c 0f90 013d 6aa1 0d3c
00000250: 1cf0 a1bd a9ba 23bd 27af 8c3d cbb9 433d
00000260: 1da3 9a3d 0e2a e23b b3be 5c3d cbe1 70bd
00000270: a28f 4dbd b952 b83c 1917 dbbb c5fa 45bd
00000280: 73ce d63c 2c99 3cbd 9da8 003c 1d39 74bd
00000290: c4af 913d 9536 1cbd 39bf 8abd b444 9cba
000002a0: 0570 153d 4071 debc 6d2e db3a f0f7 cabc
000002b0: 8e1c 493c 18e1 72bc 6b69 03bc f110 acbb
000002c0: 94f1 e2bb af15 e93c f345 8ebd d893 393c
000002d0: d03a 6ebd ae04 543d 41b8 f23c e7dc 26bd
000002e0: baf3 863b 55a3 71bc ed74 a4bd 98d3 d3bc
000002f0: 3720 d3bd df7b 6bbd 839c 303b f50e 51bd
00000300: 4984 82ba 2af8 9cbd d027 9a3c 8844 c8bc
00000310: be0b caba 3740 b7bc 0a8a 99bd 2500 9c3c
00000320: ec24 d13d 7162 d63c f33d 08bd c15a 753d
00000330: e5b0 433d 6185 9f3d f474 c03d d9d0 d33c
00000340: 6539 b8bd e6b4 923d 1e0d 35bc 2b82 6a3d
00000350: 3cd6 ca3d d4ea ba3a cb8c c43d 7008 bc3c
00000360: ed04 c53d 3c54 55bd 506e 1abc fecf 26bd
00000370: 59f2 843d fd42 a73d 294b 9e3c 9979 43bd
00000380: 1a8c 1bbd 4b8e 57bd c7b5 263d 30ff a3bc
00000390: b021 8fbc 1270 473b cd20 a33d 2222 ccbb
000003a0: 5981 7f3d 9b4b c83c c0e1 933d 4b9e b93d
000003b0: e00c 4939 d529 18bc a466 8f3d bdfd 2dbd
000003c0: 926f f7bc ab08 1d3c 560e fbbb b892 c33d
000003d0: 2ae3 82bd 8960 543c cc14 093e d967 6f3d
000003e0: c270 d538 f5de 39bd fec6 32bd f377 df3b
000003f0: 9a14 ddbd 3e38 cf3b 6842 61bd d4e4 8dbd
-0.029052224 0.06393243 -0.029521283 -0.04798486 0.021372931 -0.047006067 -0.061455484 0.04971032
-0.03457305 0.03435774 -0.13486098 0.06921179 -0.069863565 -0.0018982157 0.021797078 0.0132129025
0.06654849 -0.07809587 0.060526058 -0.1347531 0.05995155 -0.0030775105 -0.056015223 0.01597362
-0.03231476 -0.01563873 0.034511473 -0.055792212 0.005144444 -0.038810343 -0.008945369 0.020530913
-0.04995426 0.04621037 0.05865885 -0.028392999 -0.01940098 -0.023855118 0.03385073 -0.035035603
0.093506895 0.069873266 -0.06084882 -0.06352379 0.019034676 0.0019351245 -0.03229781 -0.0023904422
-0.024865367 -0.017867692 0.028008414 0.06318936 -0.001013125 -0.027098859 0.015344739 -0.036470212
-0.07095842 0.0037012654 -0.04392166 -0.018517984 0.04678779 -0.07522509 0.02158269 0.038760602
0.028092107 -0.04650512 0.0087357955 0.05597248 -0.08444163 -0.11419204 -0.051640067 -0.014727993
-0.056102436 0.004078911 -0.010866896 -0.023574047 -0.06433617 -0.06922046 0.0037273937 -0.084578484
0.023708398 -0.04341446 -0.042563494 0.009394231 -0.024255674 -0.051053837 -0.056628887 0.06858046
0.04115569 0.12382899 0.03239172 -0.052099597 0.035027966 -0.075087234 -0.08853388 -0.025266556
0.028415265 -0.047564905 0.0026080913 -0.010963294 0.011959093 -0.02645598 -0.098688625 0.018568479
-0.022907998 -0.007048798 -0.034279376 -0.012697344 -0.027803265 -0.013318908 0.02316281 0.039385658
0.05468608 0.03573691 0.02422293 0.039841726 0.0662986 0.03193011 0.060853753 -0.060989574
0.041965287 -0.030316181 0.024556918 0.055264562 0.06900905 -0.056569062 -0.023950443 -0.04617487
0.01749679 -0.025203228 -0.0532666 -0.055009615 -0.077616856 -0.11660119 0.032694962 -0.056940813
-0.07340287 0.017766505 2.1403888e-05 0.007969636 -0.015793294 0.07649055 0.052028824 0.05886253
-0.07412813 0.028388074 0.031631526 0.008644441 -0.07907125 -0.039972935 0.06869345 0.047784608
0.07550643 0.006901986 0.053892802 -0.058809083 -0.050185807 0.022500383 -0.006686103 -0.048334856
0.02622149 -0.046044514 0.007852701 -0.05962478 0.07113603 -0.03813799 -0.06774754 -0.0011922331
0.036483783 -0.027153611 0.001672221 -0.024776429 0.012274874 -0.014824174 -0.008020739 -0.005251043
-0.006925771 0.028452722 -0.069469355 0.011326753 -0.058161557 0.051762275 0.029628875 -0.040738013
0.00411841 -0.014748414 -0.08030114 -0.025857732 -0.10308879 -0.05749118 0.0026948757 -0.051039655
-0.0009957637 -0.07664521 0.018817812 -0.02444674 -0.0015414876 -0.022369487 -0.07497032 0.019043038
0.102121204 0.026169987 -0.033262204 0.059901003 0.04777612 0.07789112 0.09397307 0.025856422
-0.08995322 0.0716341 -0.011050491 0.057253044 0.09904143 0.0014260658 0.09597167 0.022953242
0.0962008 -0.052082285 -0.009425715 -0.0407257 0.06491537 0.08167074 0.019322949 -0.047723386
-0.037975408 -0.052625936 0.0407007 -0.020019144 -0.017472118 0.003043179 0.07965241 -0.006229655
0.062379215 0.024450114 0.07220793 0.09063395 0.0001917365 -0.009287317 0.07001999 -0.04247831
-0.030204568 0.009584586 -0.007661621 0.09549469 -0.06390984 0.012962469 0.1338684 0.058448646
0.00010177634 -0.045378644 -0.043646805 0.006819719 -0.10794945 0.0063238433 -0.05499497 -0.06928411
